layer {
  name: "__TOP__"
  bottom: "__IN1__"
  bottom: "__IN2__"
  bottom: "__IN3__"
  bottom: "__IN4__"
  bottom: "__IN5__"
  bottom: "__IN6__"
  bottom: "__IN7__"
  bottom: "__IN8__"
  bottom: "__IN9__"
  bottom: "__IN10__"
  top: "__TOP__"
  type: "Concat"
  concat_param {
    axis: __AXIS:1__
  }
}
