layer {
  name: "__TOP__"
  bottom: "__IN1__"
  bottom: "__IN2__"
  bottom: "__IN3__"
  bottom: "__IN4__"
  bottom: "__IN5__"
  top: "__TOP__"
  type: "Concat"
  concat_param {
    axis: __AXIS:1__
  }
}
